models/henon_model.tflite (tflite, 5624 bytes, 2 tensors)

sequential/dense/MatMul i1 [5, 784] scale=0.031641353 zero_point=0
00000000: 09f3 0ffe 0506 0105 0dfe fe02 1112 070b
00000010: 1007 f605 fa09 0d0f 110f 0b11 1110 0a15
00000020: 1c19 2620 1f0c 1c1b 080e 0a27 251c 2219
00000030: 1414 1201 08fb fbfd fc03 06fa fb10 0e08
00000040: 0d0c 181f 1017 1c18 131e 2231 2322 2619
00000050: 2226 2c1e 1319 181b 1f19 181a 181e 1111
00000060: 190d 0902 ff0c 0916 1e16 1711 1919 1a1d
00000070: 181f 1f1d 2327 2123 2c24 1d1c 1d16 1a1c
00000080: 2520 1d20 2823 1f1b 2513 1003 1415 2423
00000090: 2928 212b 2114 1b0b 1211 0c0d 1118 2524
000000a0: 1e16 1218 1a10 0f0c 100d 001a 292f 2829
000000b0: 2a29 290d fe27 181c 120d 1c17 00e2 f816
000000c0: 1918 101e 1c0c 1120 3226 0909 0c14 2018
000000d0: 12f3 e707 1a1e 1214 161a 11ff 2013 1b1b
000000e0: 241f 211b 0af5 ecfe 100b 1018 130b 282d
000000f0: 1113 1b1c 0c0a 120e fbe4 f20a 172b 2226
0.2847722 -0.41133758 0.47462028 -0.063282706 0.15820676 0.18984812 0.031641353 0.15820676
0.41133758 -0.063282706 -0.063282706 0.063282706 0.537903 0.5695444 0.22148947 0.3480549
0.50626165 0.22148947 -0.31641352 0.15820676 -0.18984812 0.2847722 0.41133758 0.47462028
0.537903 0.47462028 0.3480549 0.537903 0.537903 0.50626165 0.31641352 0.6644684
0.8859579 0.7910338 1.2023714 1.0125233 0.9808819 0.37969625 0.8859579 0.85431653
0.25313082 0.44297895 0.31641352 1.2340127 1.1707301 0.8859579 1.075806 0.7910338
0.63282704 0.63282704 0.5695444 0.031641353 0.25313082 -0.15820676 -0.15820676 -0.09492406
-0.12656541 0.09492406 0.18984812 -0.18984812 -0.15820676 0.50626165 0.44297895 0.25313082
0.41133758 0.37969625 0.7593925 0.9808819 0.50626165 0.72775114 0.8859579 0.7593925
0.6011857 0.94924057 1.075806 1.5504262 1.1074474 1.075806 1.2023714 0.7910338
1.075806 1.2023714 1.3922195 0.94924057 0.6011857 0.7910338 0.7593925 0.85431653
0.9808819 0.7910338 0.7593925 0.82267517 0.7593925 0.94924057 0.537903 0.537903
0.7910338 0.41133758 0.2847722 0.063282706 -0.031641353 0.37969625 0.2847722 0.6961098
0.94924057 0.6961098 0.72775114 0.537903 0.7910338 0.7910338 0.82267517 0.91759926
0.7593925 0.9808819 0.9808819 0.91759926 1.1074474 1.2340127 1.0441647 1.1074474
1.3922195 1.1390887 0.91759926 0.8859579 0.91759926 0.6961098 0.82267517 0.8859579
1.1707301 1.0125233 0.91759926 1.0125233 1.2656541 1.1074474 0.9808819 0.85431653
1.1707301 0.6011857 0.50626165 0.09492406 0.63282704 0.6644684 1.1390887 1.1074474
1.2972955 1.2656541 1.0441647 1.3605782 1.0441647 0.63282704 0.85431653 0.3480549
0.5695444 0.537903 0.37969625 0.41133758 0.537903 0.7593925 1.1707301 1.1390887
0.94924057 0.6961098 0.5695444 0.7593925 0.82267517 0.50626165 0.47462028 0.37969625
0.50626165 0.41133758 0.0 0.82267517 1.2972955 1.4871436 1.2656541 1.2972955
1.3289368 1.2972955 1.2972955 0.41133758 -0.063282706 1.2340127 0.7593925 0.8859579
0.5695444 0.41133758 0.8859579 0.72775114 0.0 -0.94924057 -0.25313082 0.6961098
0.7910338 0.7593925 0.50626165 0.94924057 0.8859579 0.37969625 0.537903 1.0125233
1.5820676 1.2023714 0.2847722 0.2847722 0.37969625 0.63282704 1.0125233 0.7593925
0.5695444 -0.41133758 -0.7910338 0.22148947 0.82267517 0.94924057 0.5695444 0.63282704
0.6961098 0.82267517 0.537903 -0.031641353 1.0125233 0.6011857 0.85431653 0.85431653
1.1390887 0.9808819 1.0441647 0.85431653 0.31641352 -0.3480549 -0.63282704 -0.063282706
0.50626165 0.3480549 0.50626165 0.7593925 0.6011857 0.3480549 1.2656541 1.4238609
0.537903 0.6011857 0.85431653 0.8859579 0.37969625 0.31641352 0.5695444 0.44297895
-0.15820676 -0.8859579 -0.44297895 0.31641352 0.72775114 1.3605782 1.075806 1.2023714

sequential/dense_1/MatMul i1 [10, 5] scale=0.0059495936 zero_point=0
00000000: 061c 66ae 2ab3 3b15 39d2 f367 ccf5 2c31
00000010: fab4 4a12 265d d849 8df6 cf34 2a0c c27f
00000020: 2acf 0879 1edb 1dc8 f01d f23b fa2b 1445
00000030: 0ebb
0.03569756 0.16658862 0.60685855 -0.48786667 0.24988294 -0.4581187 0.35102603 0.12494147
0.33912683 -0.2736813 -0.077344716 0.61280817 -0.30937886 -0.06544553 0.2617821 0.29153007
-0.03569756 -0.45216912 0.44026992 0.107092686 0.22608456 0.5533122 -0.23798375 0.43432033
-0.68420327 -0.059495937 -0.29153007 0.30937886 0.24988294 0.07139512 -0.36887482 0.75559837
0.24988294 -0.29153007 0.04759675 0.71990085 0.17848781 -0.22013496 0.17253822 -0.33317724
-0.0951935 0.17253822 -0.08329431 0.35102603 -0.03569756 0.25583252 0.118991874 0.41052195
0.08329431 -0.41052195
