models/henon_model.tflite (tflite, 21504 bytes, 2 tensors)

sequential/dense/MatMul i1 [25, 784] scale=0.024497421 zero_point=0
00000000: 1a05 0609 0af7 cfe3 e3d1 e4f0 f6e2 070a
00000010: 1b38 4327 2524 1916 05ff 030a eaf8 fffe
00000020: f9f3 01f8 0b03 ebf7 0517 12f6 fa0e 0010
00000030: 0bfa ffff 050c 0806 150e 1213 2513 0904
00000040: 0300 0afe f8ff 0409 0406 0f0c 0409 1613
00000050: 0112 090b 1e15 0a0c 0105 fafd 0306 090a
00000060: 060e 1821 1f0e 1419 0aff ff07 fcf9 0b06
00000070: 0b09 1b16 1e16 1102 0108 191c 1518 1517
00000080: 0b04 f5f5 fc01 fe0f 0e11 1212 0c14 140a
00000090: 1808 0e0a 00fe 0a20 2228 201b 181a 061c
000000a0: 201c 1d20 2933 3426 2e1b 101e 1f20 1213
000000b0: 1413 211a 1a1a 1e10 2013 2633 3024 212d
000000c0: 342d 3737 3631 2a1f 1d21 3539 372b 2730
000000d0: 2e1c 213b 2d20 2030 2c2b 251a 0d26 2221
000000e0: 2d26 3235 3125 1927 2f20 1e17 2525 213a
000000f0: 1e15 2e1a 1c20 1d20 2327 2d2e 3432 2125
0.63693297 0.122487105 0.14698453 0.22047679 0.24497421 -0.22047679 -1.2003736 -0.7104252
-0.7104252 -1.1513788 -0.6859278 -0.39195874 -0.24497421 -0.73492265 0.17148195 0.24497421
0.66143036 1.3718556 1.6413273 0.95539945 0.9064046 0.88190717 0.6124355 0.5389433
0.122487105 -0.024497421 0.073492266 0.24497421 -0.5389433 -0.19597937 -0.024497421 -0.048994843
-0.17148195 -0.31846648 0.024497421 -0.19597937 0.26947165 0.073492266 -0.51444584 -0.22047679
0.122487105 0.5634407 0.44095358 -0.24497421 -0.14698453 0.3429639 0.0 0.39195874
0.26947165 -0.14698453 -0.024497421 -0.024497421 0.122487105 0.29396906 0.19597937 0.14698453
0.51444584 0.3429639 0.44095358 0.465451 0.9064046 0.465451 0.22047679 0.097989686
0.073492266 0.0 0.24497421 -0.048994843 -0.19597937 -0.024497421 0.097989686 0.22047679
0.097989686 0.14698453 0.36746132 0.29396906 0.097989686 0.22047679 0.5389433 0.465451
0.024497421 0.44095358 0.22047679 0.26947165 0.73492265 0.51444584 0.24497421 0.29396906
0.024497421 0.122487105 -0.14698453 -0.073492266 0.073492266 0.14698453 0.22047679 0.24497421
0.14698453 0.3429639 0.58793813 0.80841494 0.75942004 0.3429639 0.48994842 0.6124355
0.24497421 -0.024497421 -0.024497421 0.17148195 -0.097989686 -0.17148195 0.26947165 0.14698453
0.26947165 0.22047679 0.66143036 0.5389433 0.73492265 0.5389433 0.41645616 0.048994843
0.024497421 0.19597937 0.6124355 0.6859278 0.51444584 0.58793813 0.51444584 0.5634407
0.26947165 0.097989686 -0.26947165 -0.26947165 -0.097989686 0.024497421 -0.048994843 0.36746132
0.3429639 0.41645616 0.44095358 0.44095358 0.29396906 0.48994842 0.48994842 0.24497421
0.58793813 0.19597937 0.3429639 0.24497421 0.0 -0.048994843 0.24497421 0.7839175
0.8329123 0.97989684 0.7839175 0.66143036 0.58793813 0.63693297 0.14698453 0.6859278
0.7839175 0.6859278 0.7104252 0.7839175 1.0043943 1.2493685 1.2738659 0.930902
1.1268814 0.66143036 0.39195874 0.73492265 0.75942004 0.7839175 0.44095358 0.465451
0.48994842 0.465451 0.80841494 0.63693297 0.63693297 0.63693297 0.73492265 0.39195874
0.7839175 0.465451 0.930902 1.2493685 1.1758763 0.88190717 0.80841494 1.102384
1.2738659 1.102384 1.3473582 1.3473582 1.3228607 1.2003736 1.0288917 0.75942004
0.7104252 0.80841494 1.2983633 1.396353 1.3473582 1.0533891 0.95539945 1.1758763
1.1268814 0.6859278 0.80841494 1.4453479 1.102384 0.7839175 0.7839175 1.1758763
1.0778866 1.0533891 0.9064046 0.63693297 0.31846648 0.930902 0.8329123 0.80841494
1.102384 0.930902 1.224871 1.2983633 1.2003736 0.9064046 0.6124355 0.95539945
1.1513788 0.7839175 0.73492265 0.5634407 0.9064046 0.9064046 0.80841494 1.4208504
0.73492265 0.51444584 1.1268814 0.63693297 0.6859278 0.7839175 0.7104252 0.7839175
0.8574098 0.95539945 1.102384 1.1268814 1.2738659 1.224871 0.80841494 0.9064046

sequential/dense_1/MatMul i1 [10, 25] scale=0.0036747842 zero_point=0
00000000: b19c 0568 372c 248f 977f 42c2 cd3d e402
00000010: 675d 4ac2 fc26 1e4f eaf7 d2a2 770d c9b8
00000020: 10fd f772 74b2 97fc 7751 fead fc4f 3743
00000030: 3403 00ba 2def 6001 6dce 045e fa55 d600
00000040: 5803 cde9 3f35 39ed f834 8bda 6823 2868
00000050: dcdf 6875 d05b ddf1 3cbb bbfe 1526 143a
00000060: 35ab d8b7 7803 663c 209c 4400 8f53 5bbd
00000070: c265 5dd4 baa1 074f 2e2e e54e a312 2cbd
00000080: e00c f1ed 680c 519c cfd3 57f1 39dd 485f
00000090: e5a1 6b6c 0231 1cde e1f8 0df9 e5d0 5de8
000000a0: 78db a071 e001 6eda 5b71 fcd0 cd38 360f
000000b0: 46da cb16 78fb 2ba9 3e23 65b0 55c1 3900
000000c0: 47b7 f92c 1aa5 51e1 6e45 d95a f76a 28ed
000000d0: afb7 b308 eec5 5068 5c0a 2ea9 5007 beb1
000000e0: 7139 c808 97ba 4fa0 ef20 c461 3273 7aa8
000000f0: 6924 0210 1273 d006 d93a
-0.29030794 -0.36747843 0.018373922 0.38217756 0.20211314 0.1616905 0.13229223 -0.41525063
-0.38585234 0.4666976 0.24253576 -0.22783662 -0.18741399 0.22416183 -0.102893956 0.0073495684
0.3785028 0.34175494 0.27193403 -0.22783662 -0.014699137 0.1396418 0.11024353 0.29030794
-0.08084525 -0.033073056 -0.16904007 -0.34542972 0.4372993 0.047772195 -0.20211314 -0.26458445
0.058796547 -0.011024352 -0.033073056 0.4189254 0.42627496 -0.28663316 -0.38585234 -0.014699137
0.4372993 0.29765752 -0.0073495684 -0.3050071 -0.014699137 0.29030794 0.20211314 0.24621055
0.19108878 0.011024352 0.0 -0.2572349 0.1653653 -0.06247133 0.35277927 0.0036747842
0.40055147 -0.18373922 0.014699137 0.34542972 -0.022048704 0.31235665 -0.15434094 0.0
0.323381 0.011024352 -0.18741399 -0.084520034 0.2315114 0.19476356 0.2094627 -0.0698209
-0.029398274 0.19108878 -0.42994976 -0.1396418 0.38217756 0.12861745 0.14699137 0.38217756
-0.13229223 -0.12126788 0.38217756 0.42994976 -0.17638963 0.33440536 -0.12861745 -0.055121765
0.22048706 -0.2535601 -0.2535601 -0.0073495684 0.07717047 0.1396418 0.073495686 0.21313748
0.19476356 -0.31235665 -0.14699137 -0.26825926 0.44097412 0.011024352 0.37482798 0.22048706
0.117593095 -0.36747843 0.24988532 0.0 -0.41525063 0.3050071 0.33440536 -0.24621055
-0.22783662 0.3711532 0.34175494 -0.1616905 -0.2572349 -0.3491045 0.025723489 0.29030794
0.16904007 0.16904007 -0.09921917 0.28663316 -0.34175494 0.06614611 0.1616905 -0.24621055
-0.117593095 0.04409741 -0.055121765 -0.0698209 0.38217756 0.04409741 0.29765752 -0.36747843
-0.18006442 -0.1653653 0.31970623 -0.055121765 0.2094627 -0.12861745 0.26458445 0.3491045
-0.09921917 -0.3491045 0.39320192 0.3968767 0.0073495684 0.18006442 0.102893956 -0.12494266
-0.11391831 -0.029398274 0.047772195 -0.025723489 -0.09921917 -0.17638963 0.34175494 -0.08819482
0.44097412 -0.13596702 -0.35277927 0.41525063 -0.117593095 0.0036747842 0.40422627 -0.1396418
0.33440536 0.41525063 -0.014699137 -0.17638963 -0.18741399 0.20578791 0.19843835 0.055121765
0.2572349 -0.1396418 -0.19476356 0.08084525 0.44097412 -0.018373922 0.15801573 -0.31970623
0.22783662 0.12861745 0.3711532 -0.29398274 0.31235665 -0.2315114 0.2094627 0.0
0.26090968 -0.26825926 -0.025723489 0.1616905 0.09554439 -0.33440536 0.29765752 -0.11391831
0.40422627 0.2535601 -0.14331658 0.3307306 -0.033073056 0.3895271 0.14699137 -0.0698209
-0.29765752 -0.26825926 -0.2829584 0.029398274 -0.06614611 -0.21681227 0.29398274 0.38217756
0.33808014 0.036747843 0.16904007 -0.31970623 0.29398274 0.025723489 -0.24253576 -0.29030794
0.41525063 0.2094627 -0.20578791 0.029398274 -0.38585234 -0.2572349 0.29030794 -0.35277927
-0.06247133 0.117593095 -0.22048706 0.35645407 0.18373922 0.42260018 0.44832367 -0.323381
0.38585234 0.13229223 0.0073495684 0.058796547 0.06614611 0.42260018 -0.17638963 0.022048704
-0.14331658 0.21313748
