models/standard_logNN.tflite (tflite, 5648 bytes, 2 tensors)

sequential_1/dense_2/MatMul i1 [5, 784] scale=0.020319184 zero_point=0
1.2394702 -0.54861796 0.06095755 0.2438302 0.22351103 -0.32510695 -0.44702205 -0.42670286
-0.6095755 -0.79244816 -0.10159592 -0.18287265 -0.42670286 -0.54861796 -0.4063837 -0.04063837
-0.22351103 0.2438302 0.71117145 -0.1219151 0.5689372 0.34542614 -0.1422343 0.16255347
-0.04063837 -0.3657453 0.10159592 -0.1422343 -0.5282988 -0.30478776 -0.1219151 -0.32510695
-0.34542614 -0.30478776 -0.4063837 -0.22351103 0.16255347 -0.22351103 -0.6908523 -0.04063837
-0.30478776 -0.5282988 0.10159592 -0.4063837 -0.20319185 -0.1219151 -0.18287265 -0.16255347
-0.04063837 -0.5282988 0.0 -0.06095755 -0.10159592 0.10159592 0.020319184 0.04063837
0.18287265 0.020319184 0.4063837 0.1219151 0.58925635 0.3860645 -0.10159592 0.04063837
0.0 -0.30478776 -0.08127674 -0.1219151 -0.2438302 -0.1422343 -0.2438302 0.06095755
-0.1422343 -0.32510695 0.020319184 -0.10159592 -0.020319184 -0.2844686 0.34542614 -0.2641494
-0.5689372 -0.08127674 -0.04063837 -0.06095755 0.08127674 0.04063837 0.06095755 0.020319184
-0.22351103 -0.2438302 -0.08127674 -0.4063837 0.1219151 0.16255347 0.020319184 -0.1219151
0.1219151 0.16255347 0.04063837 0.1422343 0.54861796 -0.020319184 0.020319184 -0.2438302
-0.1219151 -0.32510695 -0.32510695 -0.20319185 -0.2641494 -0.04063837 0.020319184 -0.10159592
-0.06095755 -0.22351103 0.22351103 0.0 -0.2438302 -0.06095755 -0.06095755 -0.79244816
-0.5282988 -0.3860645 -0.1219151 -0.20319185 -0.16255347 -0.2641494 0.1422343 0.18287265
-0.08127674 -0.020319184 -0.32510695 -0.2438302 -0.34542614 0.0 -0.18287265 0.16255347
-0.1219151 -0.30478776 -0.10159592 -0.1219151 -0.44702205 -0.34542614 -0.020319184 -0.20319185
0.0 -0.1422343 -0.06095755 -0.18287265 -0.30478776 -0.3657453 0.10159592 0.2641494
0.46734124 0.2641494 0.20319185 0.20319185 -0.020319184 -0.10159592 -0.20319185 0.08127674
0.10159592 -0.04063837 0.2641494 0.1422343 0.2844686 0.20319185 0.18287265 0.30478776
0.30478776 0.18287265 -0.5282988 -0.3860645 -0.04063837 -0.1219151 -0.44702205 -0.1219151
-0.1422343 0.2844686 -0.1422343 -0.22351103 0.5282988 0.2438302 0.2844686 -0.10159592
0.0 -0.18287265 0.08127674 0.04063837 -0.1219151 -0.3657453 0.2438302 0.32510695
0.42670286 0.4063837 0.34542614 0.42670286 0.58925635 0.22351103 0.22351103 -0.16255347
-0.32510695 0.1422343 0.3657453 0.6502139 0.32510695 0.2438302 0.2438302 0.44702205
0.3657453 -0.3860645 -0.44702205 -0.10159592 -0.1219151 0.10159592 -0.08127674 0.18287265
0.04063837 0.1422343 0.54861796 0.5689372 0.22351103 0.62989473 0.06095755 0.20319185
0.18287265 -0.1219151 0.2438302 0.04063837 -0.16255347 -0.30478776 -0.04063837 0.1422343
0.2844686 0.42670286 0.020319184 -0.04063837 0.2438302 0.4063837 0.4876604 0.3657453
0.10159592 0.16255347 0.08127674 0.32510695 0.44702205 0.04063837 0.22351103 -0.20319185
0.18287265 -0.1422343 -0.6908523 -0.22351103 0.1219151 0.20319185 0.0 0.020319184
00000000: 3de5 030c 0bf0 eaeb e2d9 fbf7 ebe5 ecfe
00000010: f50c 23fa 1c11 f908 feee 05f9 e6f1 faf0
00000020: eff1 ecf5 08f5 defe f1e6 05ec f6fa f7f8
00000030: fee6 00fd fb05 0102 0901 1406 1d13 fb02
00000040: 00f1 fcfa f4f9 f403 f9f0 01fb fff2 11f3
00000050: e4fc fefd 0402 0301 f5f4 fcec 0608 01fa
00000060: 0608 0207 1bff 01f4 faf0 f0f6 f3fe 01fb
00000070: fdf5 0b00 f4fd fdd9 e6ed faf6 f8f3 0709
00000080: fcff f0f4 ef00 f708 faf1 fbfa eaef fff6
00000090: 00f9 fdf7 f1ee 050d 170d 0a0a fffb f604
000000a0: 05fe 0d07 0e0a 090f 0f09 e6ed fefa eafa
000000b0: f90e f9f5 1a0c 0efb 00f7 0402 faee 0c10
000000c0: 1514 1115 1d0b 0bf8 f007 1220 100c 0c16
000000d0: 12ed eafb fa05 fc09 0207 1b1c 0b1f 030a
000000e0: 09fa 0c02 f8f1 fe07 0e15 01fe 0c14 1812
000000f0: 0508 0410 1602 0bf6 09f9 def5 060a 0001

sequential_1/dense_3/MatMul i1 [10, 5] scale=0.012551054 zero_point=0
0.5271443 0.6777569 -0.42673585 -0.56479746 -1.2802075 -1.0417376 0.037653163 -0.3263274
0.7279612 0.81581855 -0.7279612 0.916227 -0.9789822 0.5396953 -0.56479746 -0.9915333
0.15061265 0.45183796 -0.6526548 -0.037653163 1.1295949 -0.38908267 -0.51459324 0.3639806
1.1170439 0.3263274 0.22591898 0.6024506 -0.3263274 -0.5020422 0.58989954 1.2927586
-0.47694007 0.6652059 0.6150017 -0.26357216 -1.0542886 -1.5939839 -1.2551055 0.2510211
-0.08785738 -0.3263274 0.15061265 1.2174523 -0.7279612 0.33887845 -1.0542886 -0.5271443
0.38908267 -0.23847003
00000000: 2a36 ded3 9aad 03e6 3a41 c649 b22b d3b1
00000010: 0c24 ccfd 5ae1 d71d 591a 1230 e6d8 2f67
00000020: da35 31eb ac81 9c14 f9e6 0c61 c61b acd6
00000030: 1fed
