models/standard_logNN.tflite (tflite, 21528 bytes, 2 tensors)

sequential_1/dense_2/MatMul i1 [25, 784] scale=0.0038325537 zero_point=0
00000000: 17e9 f0fd e7b7 b6a5 ceca d5e0 e5bf fff0
00000010: e90d 0713 2311 150c f406 0607 e803 f2e8
00000020: 07d5 e9e5 efe9 e3e6 d0e5 05ef f40f ebfb
00000030: 0511 e30b fb0f 11f7 fd16 051d 1f0e 0505
00000040: fcfd fffb fdf7 0106 0ef5 f9e3 05e8 04e0
00000050: bcef dffe 1ffb 0407 08ef eaea 0906 0321
00000060: fe15 1137 3611 2c25 1d16 eefb dcda 010a
00000070: f0fc 0519 12f4 cfbd c9ea 0403 0808 ff23
00000080: fbf1 cbbe f6fb 051e fcfd fe15 0f16 16f8
00000090: fffb f8de d7fa 151f 1c40 230e 0928 f7f1
000000a0: 09f6 0f20 2f13 0f36 160d 04f0 1413 ecf9
000000b0: f4ea f9ec c8ef fce9 0ee6 f210 0e21 0506
000000c0: 142d 0932 3225 fff9 ee08 142a 1f1d 1928
000000d0: 3509 11ff f80d 000a 1501 edd9 ecf7 e6e5
000000e0: ff05 0b24 000d f909 0a09 f5f2 05ea 0933
000000f0: fff3 f7f5 ea12 f605 f815 030e 0918 06fa
0.088148735 -0.088148735 -0.06132086 -0.0114976615 -0.09581384 -0.27977642 -0.28360897 -0.3487624
-0.19162768 -0.2069579 -0.16479981 -0.12264172 -0.10347895 -0.24911599 -0.0038325537 -0.06132086
-0.088148735 0.0498232 0.026827876 0.07281852 0.13413937 0.06515341 0.08048363 0.045990646
-0.045990646 0.022995323 0.022995323 0.026827876 -0.09198129 0.0114976615 -0.05365575 -0.09198129
0.026827876 -0.16479981 -0.088148735 -0.10347895 -0.06515341 -0.088148735 -0.11114406 -0.0996464
-0.18396258 -0.10347895 0.019162768 -0.06515341 -0.045990646 0.057488307 -0.08048363 -0.019162768
0.019162768 0.06515341 -0.11114406 0.04215809 -0.019162768 0.057488307 0.06515341 -0.034492984
-0.0114976615 0.08431618 0.019162768 0.11114406 0.11880916 0.05365575 0.019162768 0.019162768
-0.015330215 -0.0114976615 -0.0038325537 -0.019162768 -0.0114976615 -0.034492984 0.0038325537 0.022995323
0.05365575 -0.04215809 -0.026827876 -0.11114406 0.019162768 -0.09198129 0.015330215 -0.12264172
-0.26061365 -0.06515341 -0.12647428 -0.0076651075 0.11880916 -0.019162768 0.015330215 0.026827876
0.03066043 -0.06515341 -0.08431618 -0.08431618 0.034492984 0.022995323 0.0114976615 0.12647428
-0.0076651075 0.08048363 0.06515341 0.21079046 0.2069579 0.06515341 0.16863236 0.14180449
0.11114406 0.08431618 -0.06898597 -0.019162768 -0.13797194 -0.14563704 0.0038325537 0.038325537
-0.06132086 -0.015330215 0.019162768 0.09581384 0.06898597 -0.045990646 -0.18779513 -0.2567811
-0.21079046 -0.08431618 0.015330215 0.0114976615 0.03066043 0.03066043 -0.0038325537 0.13413937
-0.019162768 -0.057488307 -0.20312534 -0.25294855 -0.038325537 -0.019162768 0.019162768 0.114976615
-0.015330215 -0.0114976615 -0.0076651075 0.08048363 0.057488307 0.08431618 0.08431618 -0.03066043
-0.0038325537 -0.019162768 -0.03066043 -0.13030683 -0.1571347 -0.022995323 0.08048363 0.11880916
0.1073115 0.24528344 0.13413937 0.05365575 0.034492984 0.15330215 -0.034492984 -0.057488307
0.034492984 -0.038325537 0.057488307 0.12264172 0.18013002 0.07281852 0.057488307 0.2069579
0.08431618 0.0498232 0.015330215 -0.06132086 0.076651074 0.07281852 -0.076651074 -0.026827876
-0.045990646 -0.08431618 -0.026827876 -0.076651074 -0.214623 -0.06515341 -0.015330215 -0.088148735
0.05365575 -0.0996464 -0.05365575 0.06132086 0.05365575 0.12647428 0.019162768 0.022995323
0.076651074 0.17246492 0.034492984 0.19162768 0.19162768 0.14180449 -0.0038325537 -0.026827876
-0.06898597 0.03066043 0.076651074 0.16096726 0.11880916 0.11114406 0.09581384 0.15330215
0.20312534 0.034492984 0.06515341 -0.0038325537 -0.03066043 0.0498232 0.0 0.038325537
0.08048363 0.0038325537 -0.07281852 -0.1494696 -0.076651074 -0.034492984 -0.0996464 -0.10347895
-0.0038325537 0.019162768 0.04215809 0.13797194 0.0 0.0498232 -0.026827876 0.034492984
0.038325537 0.034492984 -0.04215809 -0.05365575 0.019162768 -0.08431618 0.034492984 0.19546025
-0.0038325537 -0.0498232 -0.034492984 -0.04215809 -0.08431618 0.06898597 -0.038325537 0.019162768
-0.03066043 0.08048363 0.0114976615 0.05365575 0.034492984 0.09198129 0.022995323 -0.022995323

sequential_1/dense_3/MatMul i1 [10, 25] scale=0.0074472073 zero_point=0
00000000: db05 2f1d b613 adc4 f239 0b57 cb44 09e5
00000010: b7df e7c1 2d4a 2a47 ccfe acb7 8adc b52e
00000020: 2cb6 b7eb 29ec d6d8 2941 11ee 183f f6ef
00000030: 3edb de27 d116 3def e0e7 f32f c802 192d
00000040: be2f cb29 b93d de09 0353 07d1 d00f eb05
00000050: 2b1f bde6 08b0 b42e 20f3 0ae4 e8dc 09da
00000060: 0938 e3f2 41f1 4f23 34d8 3b40 313e fc09
00000070: b3ab d722 e23a 58ec 2225 03f5 da42 cc22
00000080: 17fd 20c8 12d1 f507 ea4e 2f33 3c1c 3e31
00000090: e12a 2a48 203f c232 3625 24bb 4ccc fa20
000000a0: 2a5f 00e7 0809 0b57 edc9 25b6 3d3f 0809
000000b0: e316 1744 f7ba 032f c30d f581 a906 abe6
000000c0: bee3 091c 00fe ea67 2fec d627 19fc 1734
000000d0: f6e2 1c09 4432 c4d9 f5ee d9fb 42f4 0e08
000000e0: c119 0b20 2dcc c8fc 32f9 cfe5 debd 0633
000000f0: b901 db34 1fd4 c5c8 18d0
-0.27554667 0.037236035 0.35001874 0.21596901 -0.55109334 0.14149694 -0.6181182 -0.44683245
-0.10426091 0.4244908 0.08191928 0.647907 -0.394702 0.5064101 0.067024864 -0.2010746
-0.54364616 -0.24575785 -0.18618019 -0.46917406 0.33512434 0.55109334 0.3127827 0.52875173
-0.38725477 -0.014894415 -0.6255654 -0.54364616 -0.8787705 -0.26809946 -0.5585405 0.34257153
0.32767713 -0.55109334 -0.54364616 -0.15639135 0.3053355 -0.14894414 -0.3127827 -0.29788828
0.3053355 0.48406848 0.12660253 -0.13404973 0.17873298 0.46917406 -0.07447207 -0.12660253
0.46172684 -0.27554667 -0.25320506 0.2904411 -0.35001874 0.16383857 0.45427966 -0.12660253
-0.23831064 -0.18618019 -0.09681369 0.35001874 -0.41704363 0.014894415 0.18618019 0.33512434
-0.4915157 0.35001874 -0.394702 0.3053355 -0.52875173 0.45427966 -0.25320506 0.067024864
0.022341622 0.6181182 0.052130453 -0.35001874 -0.35746595 0.11170811 -0.15639135 0.037236035
0.32022992 0.23086342 -0.49896288 -0.19362739 0.05957766 -0.59577656 -0.56598777 0.34257153
0.23831064 -0.09681369 0.07447207 -0.20852181 -0.17873298 -0.26809946 0.067024864 -0.28299388
0.067024864 0.41704363 -0.21596901 -0.10426091 0.48406848 -0.11170811 0.5883294 0.26065224
0.38725477 -0.29788828 0.43938524 0.47662127 0.36491317 0.46172684 -0.02978883 0.067024864
-0.57343495 -0.63301265 -0.3053355 0.25320506 -0.22341622 0.43193802 0.65535426 -0.14894414
0.25320506 0.27554667 0.022341622 -0.08191928 -0.28299388 0.4915157 -0.38725477 0.25320506
0.17128576 -0.022341622 0.23831064 -0.41704363 0.13404973 -0.35001874 -0.08191928 0.052130453
-0.16383857 0.5808822 0.35001874 0.37980756 0.44683245 0.20852181 0.46172684 0.36491317
-0.23086342 0.3127827 0.3127827 0.5361989 0.23831064 0.46917406 -0.46172684 0.37236038
0.4021492 0.27554667 0.26809946 -0.5138573 0.56598777 -0.38725477 -0.044683244 0.23831064
0.3127827 0.7074847 0.0 -0.18618019 0.05957766 0.067024864 0.08191928 0.647907
-0.14149694 -0.4095964 0.27554667 -0.55109334 0.45427966 0.46917406 0.05957766 0.067024864
-0.21596901 0.16383857 0.17128576 0.5064101 -0.067024864 -0.5213045 0.022341622 0.35001874
-0.45427966 0.09681369 -0.08191928 -0.94579536 -0.647907 0.044683244 -0.63301265 -0.19362739
-0.4915157 -0.21596901 0.067024864 0.20852181 0.0 -0.014894415 -0.16383857 0.76706237
0.35001874 -0.14894414 -0.3127827 0.2904411 0.18618019 -0.02978883 0.17128576 0.38725477
-0.07447207 -0.22341622 0.20852181 0.067024864 0.5064101 0.37236038 -0.44683245 -0.2904411
-0.08191928 -0.13404973 -0.2904411 -0.037236035 0.4915157 -0.08936649 0.10426091 0.05957766
-0.46917406 0.18618019 0.08191928 0.23831064 0.33512434 -0.38725477 -0.41704363 -0.02978883
0.37236038 -0.052130453 -0.36491317 -0.2010746 -0.25320506 -0.49896288 0.044683244 0.37980756
-0.52875173 0.0074472073 -0.27554667 0.38725477 0.23086342 -0.32767713 -0.43938524 -0.41704363
0.17873298 -0.35746595
